saved_models/MNIST_CNN.pt (torch, 38423 bytes, 6 tensors)

0.weight f4 [8, 1, 3, 3]
000000 6c c6 a0 be f0 f0 85 bd 46 f2 23 be 3b 14 b6 bd
       -0.31401384 -0.06540096 -0.16010389 -0.088905774
000010 46 c4 96 be 36 f9 08 3e 8b fc 98 be 96 00 ae bc
       -0.2944662 0.13376316 -0.29880175 -0.021240514
000020 a6 4d ed 3d fa 68 c9 3d f6 24 d2 3e fd 8e 6c 3e
       0.11587076 0.09834476 0.41043824 0.2310142
000030 88 fd f5 3e 77 32 04 3f e7 98 cf 3d d2 74 b0 3e
       0.48044991 0.51639503 0.10136586 0.34464127
000040 ed 07 a9 3d b3 03 9d 3e fa e6 a9 bd b3 e6 84 3e
       0.08253465 0.30666885 -0.082960084 0.2595726
000050 89 df 2c 3e 4d ab 1c 3e ac ae f5 3d 81 b4 af 3e
       0.16882147 0.15299721 0.11996207 0.343174
000060 58 4d 1b 3f 4a 5d ed 3e 44 7e 6d 3e be d8 6f 3e
       0.6066489 0.46360236 0.23192698 0.23422524
000070 a4 46 df 3e 46 b2 25 bd 13 c6 cd 3e 1d 94 65 3e
       0.43608582 -0.040453218 0.4019018 0.22419782
000080 e0 5b 03 3f e1 5d f5 3c a4 f4 7c 3e 41 fe b6 3e
       0.51312065 0.029951992 0.24702698 0.35740855
000090 06 d0 08 3f 25 9a 98 3e 3f c7 28 3f 9f 86 88 be
       0.5344242 0.29805103 0.65929025 -0.26665208
0000a0 1b 8b 1f bd a2 02 1d be ca b6 c1 be 6a 88 94 be
       -0.03895102 -0.15333036 -0.3783477 -0.29010326
0000b0 3d 71 6a be da bd 9e 3e 58 05 a3 3d 0e a0 4c be
       -0.2289476 0.3100422 0.079600036 -0.19982931
0000c0 16 23 fd 3e 56 2c ec 3e 10 ce d0 3e 8b ce ee 3e
       0.4944083 0.46127576 0.40782213 0.46641955
0000d0 64 2b b3 3e aa 34 cf 3e 31 99 ea 3e b3 e5 8c bb
       0.34994042 0.40469867 0.4582 -0.004299843
0000e0 71 f2 c2 be ef 7d f0 3d 28 f9 5c 3e 5e 51 31 3e
       -0.38075593 0.1174277 0.2157942 0.17316195
0000f0 1f 15 99 3e c1 02 ff 3e b4 04 cc 3e 0b 61 7c be
       0.29898927 0.4980679 0.39847338 -0.24646394
000100 a6 13 cd bd db 98 a0 bd 78 bd 4f 3e 40 a8 f7 bd
       -0.10013513 -0.07841655 0.2028712 -0.12092638
000110 00 cf 0e be d6 84 5b bd 90 a6 ad bd 66 15 a8 bd
       -0.13946152 -0.05359348 -0.08479035 -0.082072064

0.bias f4 [8]
000000 bf fc a6 be 08 9e 1c 3e d3 ac b6 3d 9b 02 a3 bb
       -0.32614705 0.15294659 0.08919682 -0.004974676
000010 87 1b 9a b9 3a cf ca ba ae 9d f3 3d 76 f4 74 be
       -0.00029393678 -0.0015473135 0.118953094 -0.2392138

3.weight f4 [16, 8, 3, 3]
000000 28 50 36 bd cc e8 49 3d 1f ae 9b bd b8 00 57 bc
       -0.044510037 0.049294278 -0.0760157 -0.01312273
000010 27 02 b6 bd 71 dd df 3d 30 1a 82 3d 22 18 df bd
       -0.08887129 0.109309085 0.06352651 -0.10893275
000020 f8 41 85 bd 4d b5 fa 3d 67 43 1f bd a1 7a 9f bd
       -0.06506723 0.12241612 -0.03888264 -0.077870615
000030 98 63 a3 bc c3 bb 8d bd bf ed bb ba cd e4 a1 bc
       -0.019944951 -0.06920578 -0.0014337822 -0.019762421
000040 94 04 c8 3c 8b 97 b1 3d 9d 84 06 3e f5 49 8c bd
       0.024416246 0.08671483 0.13136525 -0.06850044
000050 14 a3 cd bd b2 a2 e7 3d b5 77 a5 bb 17 b5 3f bd
       -0.1004087 0.113103285 -0.0050496706 -0.04680356
000060 99 9c 0b 3e dc 5b 18 3e 92 e4 b2 3d 57 68 07 3d
       0.13633956 0.14878792 0.087350026 0.03305849
000070 17 be 96 be a4 cf c8 be 2f 64 29 3e 25 20 eb bd
       -0.29441902 -0.39220917 0.16542123 -0.114807405
000080 29 dd 3c be d8 e5 18 3e 50 57 88 3e 11 f4 5b 3e
       -0.18443741 0.14931428 0.26629114 0.21479823
000090 1b 15 bc bd df d6 21 be 1e 62 ff bd b5 c2 8b bc
       -0.09183713 -0.15804623 -0.12469886 -0.017060617
0000a0 e5 42 bf be 00 38 6b be 7c 9b 87 3e f9 44 27 bd
       -0.37355724 -0.22970581 0.26485813 -0.04083726
0000b0 54 02 1d bd 3e 21 27 3e 2d d1 39 be 6c 13 a8 be
       -0.0383323 0.16321275 -0.181462 -0.32827318
0000c0 ff cc 82 3e cc 6b 21 3b d8 8c 62 bc cf fb 0d 3e
       0.25547025 0.0024630902 -0.013827525 0.13865589
0000d0 df 18 1f 3e 41 57 5c 3c 77 97 72 3d 8d 69 45 3d
       0.15536831 0.013448537 0.05922648 0.048196364
0000e0 8b b6 13 bd db a8 d9 3d 36 a5 a7 3d 5f 3f b1 3d
       -0.03606276 0.1062791 0.08185808 0.08654665
0000f0 78 c3 4d bc e2 04 30 3e 11 9d a1 3c 81 67 c4 bc
       -0.01255881 0.17189363 0.019728215 -0.023975136
000100 cc b4 65 3d db 82 c8 bd 20 d9 91 bc ee a5 e6 3d
       0.056080624 -0.09790584 -0.017803729 0.11262117
000110 e6 bb 2d 3d 86 7e 32 bd cf 4a d2 bc 80 57 be 3d
       0.042415522 -0.043577693 -0.025670437 0.09294033
000120 eb 5f 36 3d 65 9c a3 3d 68 6c 9b bd 4f 2b 0b 3d
       0.04452507 0.07988814 -0.07589036 0.03397685
000130 63 94 ac 3c 47 4a a8 3c 4c 1d e0 3d 08 9c 85 3d
       0.02106685 0.02054323 0.10943088 0.06523901
000140 99 5e a6 3d 63 c3 27 be 83 77 5b bd ff 7e 02 3d
       0.08123512 -0.16383128 -0.053580772 0.031859394
000150 4f 89 64 be 92 64 93 bc 8e a7 35 3d 81 0f 01 3d
       -0.22318004 -0.017992292 0.044349246 0.031508926
000160 ed 85 38 3e e7 d8 e7 3d 07 60 8e be 95 6b f0 bd
       0.18019839 0.11320668 -0.27807638 -0.1173927
000170 c7 63 68 3e c0 70 de 3d ec 0f 4c 3e 35 1a 82 3e
       0.22694312 0.10861349 0.19927949 0.2541062
000180 4c 1b 74 3d 2d 18 4f 3d 5e df 25 bd a1 c2 64 be
       0.059596345 0.050560165 -0.040496223 -0.2233987
000190 33 dc c6 bd 47 5c 56 3e da 88 9d bb 7c 42 54 3e
       -0.097099684 0.20933639 -0.0048075737 0.20728487
0001a0 de 6e d0 3d 49 99 fd 3d 8d 1b 34 3e 49 b7 f0 3d
       0.10177396 0.123827524 0.17588635 0.11753709
0001b0 1b c9 e5 3b ec 46 9d be b0 5d 4c be b7 89 b1 be
       0.007012499 -0.30718172 -0.19957614 -0.3467538
0001c0 44 d0 74 be 50 e2 b8 ba fc 85 8b 3c 00 86 7c 3e
       -0.23907572 -0.0014105532 0.017031662 0.24660492
0001d0 2b c8 89 3e 6c 52 6d be 19 5e 5a bd 36 ad 43 3e
       0.2691053 -0.23175973 -0.053312395 0.19109043
0001e0 62 9a a9 bc 6a 2e 52 3e 8e 15 b3 3d b2 d6 5b 3e
       -0.020703498 0.20525518 0.087443456 0.21468619
0001f0 43 40 72 3e b7 59 3a 3e ae 87 20 be fd a4 21 bd
       0.23657326 0.18198286 -0.15676758 -0.039463986
000200 a4 ea 23 bd 1f 4f 1f bb 4c 56 fb 3d e3 9f 51 3d
       -0.040018693 -0.0024308634 0.12272319 0.05117787
000210 7c b0 84 3d b4 7f 02 3e 78 fe 23 bd 84 af db bd
       0.06478974 0.12744027 -0.040037602 -0.10726836
000220 a5 6b 90 bd e2 89 6b 3c 89 f3 b2 bc 39 0b d0 3c
       -0.070517816 0.014376136 -0.021844642 0.025395976
000230 09 95 e5 bc ba 00 9e bd 52 2e 80 3c 2a 78 a3 3d
       -0.028025167 -0.07714982 0.015647087 0.07981904
000240 b5 eb 90 bd cf 91 d3 3d 54 9b ed 3c f0 fc ed 3d
       -0.070762075 0.10330545 0.02900473 0.116205096
000250 17 3a dd bd 17 08 e7 bd d9 c4 23 3d 61 29 e1 bd
       -0.108020954 -0.1128084 0.03998265 -0.109942205
000260 fd ca c5 bd 0c 23 d3 3d 75 bf 27 3d 73 a8 32 be
       -0.096578576 0.10309419 0.040954072 -0.17447071
000270 de 9f 45 3e c2 61 93 3d ea f2 3e 3e db 13 03 be
       0.19299266 0.0719638 0.18647352 -0.12800543
000280 d1 87 0e be 43 1a ba bc e7 80 7e 3d c1 98 be bd
       -0.13918997 -0.0227176 0.06213465 -0.09306479
000290 f5 ff 9f bb 78 40 28 3d 40 1f 63 3d cb 1a fc 3d
       -0.0048828074 0.041077107 0.055449724 0.12309798
0002a0 f0 f5 10 be 24 19 69 be f9 2c 74 3d da 55 ee 3c
       -0.14156318 -0.22763497 0.0596132 0.029093672
0002b0 84 7d c3 3d 72 eb bf 3d de 01 24 3e e2 3c 4b 3e
       0.095454246 0.093710795 0.16016337 0.19847444
0002c0 38 05 87 3e df e9 9d bd 18 a6 a5 bd dd 8d 48 3e
       0.2637117 -0.07710623 -0.080883205 0.19585367
0002d0 bd d7 0e bd 26 08 6a be b3 ec a2 be 2b 53 a6 3e
       -0.034873713 -0.22854671 -0.31821212 0.32485327
0002e0 63 cd 80 3e 70 f8 a8 3d 4a a5 b3 3e f8 a1 9b 3e
       0.25156698 0.08250511 0.35087043 0.3039701
0002f0 77 02 b0 3e 09 cd b8 3d 09 41 9c 3c 52 1b f7 3d
       0.3437688 0.09023482 0.01907398 0.12065758
000300 9c 09 47 3e 52 6a 87 3e 24 69 85 3e 0d 2c ea bd
       0.1943726 0.26448303 0.26056778 -0.11434183
000310 4c 24 d1 bd 99 53 03 3e 1f 8f 9f 3d 11 f8 15 3e
       -0.10212001 0.12824859 0.0779097 0.14645411
000320 34 84 b6 ba 3e 6e 6d 3e d2 ed 36 3e 0b ca 02 3e
       -0.0013924898 0.23186585 0.17864159 0.12772386
000330 37 33 7e be e6 42 a0 bc b0 a3 e0 3c 63 fa 26 3d
       -0.24824224 -0.01956315 0.027421802 0.04076613
000340 6c 1e 43 3d 58 6d c7 bb 58 ae 72 bd 3c 13 10 bd
       0.047636434 -0.006086033 -0.0592483 -0.035174593
000350 cc ea ab bb 74 df 95 3d 44 20 0d bc b4 c0 f4 bc
       -0.005246496 0.07318011 -0.00861365 -0.029877044
000360 04 35 83 bc 87 80 9e 3c fa a3 c0 3d cd 23 b6 3d
       -0.01601649 0.019348396 0.09406276 0.08893547
000370 a7 dd e1 bb 39 f2 7f 3c 53 e3 da 3d 6c 13 54 3d
       -0.006892878 0.015621715 0.1068789 0.051776335
000380 8d bd 4b bc 2a c9 a4 3b 4b 42 d4 3d 41 60 57 3c
       -0.012435329 0.0050288634 0.10364207 0.013145507
000390 53 53 d1 3c 2e 16 91 3d 2e ad cf bc 99 72 12 bc
       0.025552427 0.070843086 -0.025351133 -0.008938455
0003a0 9c 9f 32 3e 38 92 27 3d cf f1 07 be d6 74 17 3e
       0.17443699 0.04091093 -0.13275836 0.14790663
0003b0 83 86 89 3d 36 fe 92 3d 2d f2 92 3d 5d ee 52 3d
       0.06715109 0.07177393 0.071750976 0.051496852
0003c0 82 ab 8e 3d 81 f4 29 3e 2d 61 bf 3c 56 34 71 bd
       0.06966306 0.16597177 0.023361767 -0.058887802
0003d0 37 2a 10 3e 12 ad 3a 3d 10 f1 f1 3d 19 13 9d 3d
       0.14078604 0.04557521 0.11813557 0.07669658
0003e0 9d 07 ea bc 57 ac 24 3e ce dd 19 3e c4 a4 ec 3c
       -0.028568083 0.16081367 0.15026018 0.02888716
0003f0 0e ca 81 be cc 79 6f be 12 0c 0a be e3 77 4a be
       -0.25349468 -0.23386306 -0.13481167 -0.19772296

3.bias f4 [16]
000000 7f ac c1 3d 1b c5 39 bd 49 f0 2f be f1 aa 24 3d
       0.09456729 -0.04535399 -0.17181505 0.040202085
000010 92 28 17 bd a7 b2 fb bd 87 66 24 be 0e f8 9a bd
       -0.036903925 -0.122899346 -0.16054736 -0.07566844
000020 74 3b d2 bc 07 99 8e 3d 39 60 19 3e 04 04 36 be
       -0.025663115 0.069627814 0.14978112 -0.1777497
000030 17 da 46 bd e2 14 70 be 77 3b 32 be 36 ca e6 bd
       -0.04854783 -0.23445466 -0.17405497 -0.112690374

7.weight f4 [10, 784]
000000 82 e9 0b 3c c9 95 85 3c 50 2a ab bc d4 7d e5 3c
       0.008539559 0.016306775 -0.0208942 0.028014101
000010 3d d7 c3 bc 10 ed 09 bd fe d9 50 3b 0e bd ca bb
       -0.023906345 -0.033673346 0.0031868215 -0.006187088
000020 96 00 d8 bb 21 47 1a bd 63 c6 73 3d cf e5 5a 3d
       -0.0065918667 -0.03766549 0.05951537 0.05344182
000030 41 d2 5c bc 4c be d5 bc 78 8b 66 bb 9f 65 0f bb
       -0.013477863 -0.026091717 -0.0035178345 -0.002188064
000040 f7 26 88 3c e5 f0 3d bd 72 d6 fe bc 4b a0 de 3c
       0.016620142 -0.046372313 -0.031108115 0.027176043
000050 2c 7f e7 bb f3 b3 3c bd f2 f2 04 bd e3 bf 22 bd
       -0.0070647206 -0.04607005 -0.032458253 -0.03973378
000060 ce b4 9d bd 68 26 c6 bd 23 a9 a9 bc fd 8b 0d 3d
       -0.077005014 -0.09675294 -0.020710533 0.03455733
000070 8e db 00 3c 42 bd d3 bc c0 79 9d 3d 4c 0c 64 3d
       0.007864846 -0.025847081 0.076892376 0.05567579
000080 49 46 9e bd 3c 9c 28 3c 7e 25 15 3c d5 f1 8f bc
       -0.077282496 0.010291155 0.009103177 -0.01757137
000090 fd 11 d1 3b d6 64 9c 3c ac ad 4a 3d 84 1d a1 bc
       0.006380318 0.019091051 0.049482033 -0.019667394
0000a0 fc 2e e4 bc d6 6d 1a bd 55 d4 c3 39 56 10 d5 3c
       -0.027854435 -0.037702404 0.00037351498 0.026008766
0000b0 99 a1 10 bd 92 e4 2d bd a1 ae 40 bc 58 4e 38 bd
       -0.03531036 -0.04245431 -0.011760385 -0.04499659
0000c0 74 99 38 bd 17 ef 8e bc 77 7b 27 bd 69 d9 30 ba
       -0.04506822 -0.017447991 -0.04088923 -0.0006746264
0000d0 fb 2d c7 bb f9 9a 6b 3d cb bf a8 3b 69 b8 0d 3d
       -0.0060784793 0.05752084 0.0051498166 0.034599695
0000e0 7b 0f 4d bd a9 b1 9b bd 0a 11 f1 bc 20 92 8b 3c
       -0.05006359 -0.07602245 -0.02942707 0.017037451
0000f0 80 44 5b 3d 9a f4 36 bc a2 78 15 bd f3 a6 3c bc
       0.053532124 -0.011166716 -0.036491998 -0.011514413
000100 65 58 99 3b ba 0a 24 3d d6 1c 36 3c 27 e3 a7 bd
       0.004679727 0.040049292 0.011115273 -0.08197623
000110 b4 f6 ca 3c a5 cd a2 3c 55 cb 00 bd 94 9c 4b 3d
       0.02477584 0.01987345 -0.031443913 0.04970987
000120 5d 8b 2b 3d 88 47 4c be 61 4f 5a bd ef 0c 87 3d
       0.041880954 -0.19949162 -0.053298358 0.06594264
000130 17 42 cb bc d2 44 95 ba 0b f2 8a 3c 9a 36 9b 3b
       -0.024811788 -0.0011388308 0.016961118 0.0047367336
000140 29 f6 3a bc 7e c8 9e 3d bf 5e b3 bb c7 0d 43 bd
       -0.011411228 0.077530846 -0.005473941 -0.04762056
000150 0b f8 19 3d 5f 8d 34 3d 2c 43 e2 3b 50 a7 9b 3c
       0.037590068 0.044080134 0.00690498 0.01900068
000160 73 ea c9 3b 3b 75 d0 bc 70 34 42 bd 78 00 b4 3b
       0.0061619817 -0.025446525 -0.04741329 0.00549322
000170 3a 03 ce bc b5 d1 48 bd c9 a5 99 bd 06 58 dd bd
       -0.025148023 -0.049028117 -0.07502324 -0.10807805
000180 d0 7c 05 bc 86 77 d0 3c 4e f2 6a bd f5 25 6b bd
       -0.008147433 0.025447618 -0.057359986 -0.057409246
000190 9e 22 97 bd 8e 2f 44 bc 1b 48 fb bc dc b3 b3 bd
       -0.073796496 -0.011974229 -0.030674031 -0.0877454
0001a0 4f 25 c5 bc 5b 2b 11 bd be 34 b9 bc 61 8a df bb
       -0.024065642 -0.035441738 -0.022608157 -0.006821916
0001b0 23 57 f2 bb a0 ce 6d 3d f6 f2 e5 3c d3 bf a9 bc
       -0.0073956414 0.05805838 0.028069954 -0.020721352
0001c0 3e a7 31 bd 3a ec 69 3c e7 16 02 bc c4 7b 17 3c
       -0.043372385 0.014277512 -0.007940031 0.009245817
0001d0 3f d1 92 3d 41 34 de 3c d2 74 9b 3a 8e bb f2 3c
       0.07168817 0.027124526 0.0011860377 0.029630449
0001e0 01 0d 3f 3d 14 03 62 bd d9 e9 1b be eb c5 51 bd
       0.04664326 -0.055178717 -0.15225925 -0.05121414
0001f0 de a8 46 3c 8d e6 57 3d 0e 99 20 3c 82 52 6a 3d
       0.012125222 0.052710105 0.009802116 0.05720759
000200 07 a9 7b 3c 91 35 87 bd da 9b 82 bd 86 d3 26 3d
       0.0153601235 -0.06602014 -0.063773826 0.04072907
000210 dc 73 a2 bc 2a 6d cb 3c c4 cd c8 3c b0 0c 18 3d
       -0.019830637 0.024832327 0.02451218 0.037121475
000220 d7 cb ca 3c 22 ee 5b bc de 58 bd 3c 33 e8 7c bc
       0.024755402 -0.0134234745 0.023113664 -0.01543622
000230 3f 7e 46 bd 58 c4 2d bd f9 a5 69 bc 57 cb 42 3b
       -0.04846024 -0.042423576 -0.014260762 0.002972325
000240 c8 cd 6d bd a5 00 40 bd be 73 40 bd 1c da 23 bc
       -0.058057576 -0.046875615 -0.04698538 -0.010000732
000250 5d 51 9c bc cc 71 e5 bb 2d f2 52 bc 8d 02 e5 3b
       -0.019081766 -0.007002091 -0.012875122 0.0069888295
000260 86 8d 08 bd 6f d8 d6 bc b0 a0 c9 3b 83 bd 5a bd
       -0.033338092 -0.02622625 0.0061531886 -0.05340339
000270 19 35 91 3c ad 31 05 bc 5c 70 99 3c 60 a4 1f 3c
       0.017725514 -0.008129519 0.018730335 0.00974378
000280 20 fc 68 bb 39 82 75 bc 6a 6b b7 bc b4 b4 77 3d
       -0.0035550669 -0.014984661 -0.022390086 0.060475066
000290 4e 2e 2c bc a7 90 6e bb 2d fd 04 3d 5f c0 01 3d
       -0.010509087 -0.0036402137 0.03246801 0.0316776
0002a0 33 67 e2 bc 04 2c 5b 3d d1 3c 43 3d 36 1b a9 bd
       -0.0276371 0.053508773 0.04766542 -0.08257143
0002b0 1b 6f 9e bc 29 b7 53 3d 56 17 97 bc 3a e2 75 bc
       -0.019340089 0.051688347 -0.018443745 -0.01500755
0002c0 f1 dc b9 bc 2b 51 95 bc 1d d2 92 bd 0a 89 00 3c
       -0.02268836 -0.01822718 -0.07168982 0.007845173
0002d0 43 71 94 3d 04 89 b1 bb ef e3 db 3c fc 94 1c 3d
       0.072481655 -0.005417945 0.026842086 0.03822802
0002e0 b8 ae c2 3c 2d b2 04 3d 85 27 a0 3c 29 da 82 3b
       0.023764953 0.032396484 0.019550094 0.003993292
0002f0 7d 65 e7 3b 60 ab 51 3c 53 cd 19 3c 73 6c ee 3c
       0.007061659 0.012797207 0.009387332 0.029104447
000300 58 6f aa bc 04 98 0b 3c 87 44 98 bc e4 1f ac 3c
       -0.020805046 0.00852013 -0.018587364 0.0210113
000310 61 5e 3b bd 52 8c 2d bd 3f 9d a2 bc 93 41 1d 3d
       -0.045744304 -0.042370148 -0.019850371 0.038392615
000320 e4 92 cd bb 12 8c c0 3c f9 08 8a bc f6 51 1f bd
       -0.0062736142 0.02350429 -0.016849982 -0.038896523
000330 4c 3a e8 bc 77 92 cf bc dd 63 ba 3c 7d 48 51 3d
       -0.02834811 -0.025338395 0.022752697 0.05109452
000340 42 53 15 bd 99 a8 8f 3c 71 02 13 3d b4 95 9e 3c
       -0.036456354 0.017536448 0.035891 0.019358493
000350 10 b4 99 bb ff 2c f2 ba ba 43 1a 3d 7c 22 8b 3c
       -0.0046906546 -0.0018476545 0.037662245 0.016984217
000360 df c8 85 bd 27 cf 32 3d 63 ad 91 3d 0a 91 17 3d
       -0.06532454 0.043654587 0.07113149 0.037003554
000370 52 65 47 be 37 57 bb 3d 5d f6 8e 3d 16 01 52 bd
       -0.19472244 0.09147494 0.06980584 -0.051270567
000380 4e cb 31 3d f4 9b a0 3d 38 b1 58 3d ef 85 b8 bd
       0.043406777 0.07842246 0.052903384 -0.09009921
000390 19 13 c5 3d 72 41 60 3c 28 02 5c bc fd 47 60 3c
       0.09622783 0.013687478 -0.013428248 0.013689038
0003a0 a2 e5 4d 3c ea cc 3d 3c 8e d0 91 bd 5f 9d 4a bd
       0.012566956 0.0115845 -0.07119857 -0.049466487
0003b0 9b 08 3e 3b 68 0a 0b bd 81 26 c5 3c b9 b0 91 bd
       0.0028996828 -0.03394547 0.024066212 -0.07113785
0003c0 11 26 3e bc b9 ef 0f bc fb d3 58 bd 05 cb d5 3c
       -0.011605755 -0.008785182 -0.052936535 0.026097784
0003d0 64 69 e9 bc 38 01 0e bd 3b f3 86 bc bf 23 b6 bc
       -0.028492637 -0.03466913 -0.016473403 -0.022233842
0003e0 32 ec c3 bc 19 25 91 3b 43 4f 10 bd 17 ff b0 3d
       -0.023916338 0.004429471 -0.03523184 0.086424045
0003f0 fa ac 40 bb cf 79 a6 bc 02 ae 8a bd d6 c9 09 bc
       -0.0029399977 -0.020321755 -0.067714706 -0.008409938

7.bias f4 [10]
000000 89 e6 0b bb 4f 0d 2e 3d 69 9e 65 bc f9 37 77 bd
       -0.0021347126 0.04249316 -0.014014819 -0.060356114
000010 48 5f 25 3c 75 48 e4 3c 4e 76 87 3c ab 2b 1e 3d
       0.010093518 0.027866581 0.016535904 0.038615864
000020 9d e5 d8 bb f8 df ea 3c
       -0.006619169 0.02867125
