example/artifacts/mnist_cnn.pt (torch, 38631 bytes, 6 tensors)

0.weight f4 [8, 1, 3, 3]
000000 5c 57 ea 3e c7 9e cf bc 0e 63 03 3f 44 fb 8d 3e
       0.45769775 -0.025344266 0.5132302 0.27730763
000010 12 33 0e 3f d5 98 a8 3e 04 a1 b2 3e fc ce 62 3e
       0.5554668 0.32929102 0.3488847 0.22149271
000020 be ed 02 3f ab 0e 3c 3d ee 6d 20 be ae 11 aa 3d
       0.51144016 0.045912426 -0.15666935 0.083041534
000030 a9 fb 18 be 0c 40 20 bd b0 f3 0a be c3 dd 71 3e
       -0.1493975 -0.03912358 -0.13569522 0.23619752
000040 46 90 85 be 02 7b 1d be f9 86 d0 bd 64 9c 48 be
       -0.26086634 -0.15378955 -0.10181994 -0.19590908
000050 c8 6b 1b 3d fd 5d a4 be 54 02 a5 3e c4 ae 86 be
       0.037944585 -0.32102957 0.3222834 -0.2630521
000060 73 d5 97 3e 65 11 be 3d 11 44 a0 bd 6f 20 ca 3e
       0.29655036 0.092806615 -0.07825483 0.3947787
000070 7d 0c a3 3e b2 40 06 3f 2d bd 5d 3e 2f 58 3f 3e
       0.31845465 0.5244247 0.21654196 0.18685983
000080 ca e1 c0 3e 0e 03 ce 3c dd a6 c2 3e c4 b1 0c 3f
       0.37672263 0.025147941 0.38017932 0.5495875
000090 f7 9c 64 3e e5 64 05 be 1f 5d 4f 3e 82 6e 98 3d
       0.22325502 -0.1302677 0.20250367 0.07442953
0000a0 8f 95 2c 3e 88 71 54 be 2a 71 aa be f8 bc 0a be
       0.16853927 -0.20746434 -0.33289462 -0.13548648
0000b0 e0 01 85 be ca 54 b5 3e 5f e7 2c 3e 58 f7 4a 3e
       -0.25977993 0.3541625 0.16885136 0.19820917
0000c0 e2 27 23 3e f2 42 1f 3d 8c d4 9b 3e f7 64 7f be
       0.15933183 0.038882203 0.30435598 -0.24940859
0000d0 89 40 b0 3a ca 89 6f be 71 5f ff 3d c1 6d 72 bd
       0.0013446967 -0.23392406 0.12469376 -0.0591867
0000e0 b1 a0 37 3e 96 12 60 bd bf f1 a9 3e ce 62 ef bd
       0.17932393 -0.054705225 0.3319225 -0.116887674
0000f0 8c 42 51 be 9f 73 27 be d7 c9 be 3e 2c a0 bb 3d
       -0.20435542 -0.163527 0.37263367 0.0916141
000100 d0 99 9a 3e da 18 8e be a9 8b b3 be dc 38 8f be
       0.30195475 -0.27753335 -0.3506749 -0.27973068
000110 0a 03 69 be 39 36 fe 3d 25 02 e5 3d a9 08 8f 3e
       -0.22755066 0.12412686 0.1118205 0.27936295

0.bias f4 [8]
000000 3c 14 57 bd cc bd 67 be 67 55 37 3e 30 d9 93 bc
       -0.05250953 -0.22630996 0.17903672 -0.018047899
000010 54 67 52 3e ae 83 50 bd 7d 3d 47 3e b8 d6 83 be
       0.20547229 -0.05090683 0.1945705 -0.25749755

3.weight f4 [16, 8, 3, 3]
000000 81 d3 73 bd 45 53 10 3d 88 a3 c1 3c 34 1b f6 bc
       -0.059527878 0.035235662 0.023637548 -0.030042268
000010 a1 32 8f 3d c6 c8 a0 3d da 0d af bd 97 a9 80 bd
       0.069920786 0.078507945 -0.08547564 -0.06282347
000020 d9 8a da 3d e3 e6 22 bd 8d 0f 2b bd 0d 98 e9 bd
       0.10671014 -0.039770972 -0.041762877 -0.114059545
000030 69 3b 8a bd f3 1b f1 3c 71 be 7e bc 3d 37 af bd
       -0.06749613 0.029432273 -0.015548334 -0.08555458
000040 a2 88 36 3b 06 df a4 bd 7a ec cc bd 8e dc 84 bd
       0.0027852436 -0.08050351 -0.10006042 -0.0648738
000050 0f 2e d3 bd 57 6e 9a bd a1 bc f0 3d fe de b5 3c
       -0.10311519 -0.07540577 0.11754728 0.022201058
000060 95 2c 13 3d 8c b3 e1 bd 66 fd 9e bd 7d f0 20 bd
       0.03593119 -0.11020574 -0.07763176 -0.039291847
000070 b1 e5 90 3c 2b 23 d7 bd 3c 00 50 bd c3 58 91 bd
       0.01768765 -0.10504755 -0.050781474 -0.07097008
000080 b6 51 ce ba f5 9e 33 bd 1b 36 05 bc 24 15 a7 bd
       -0.0015740904 -0.043852765 -0.0081305755 -0.08158329
000090 c1 f2 a5 bd 5f b7 8c bd 14 12 25 bd bf a4 bf bd
       -0.08102942 -0.06870913 -0.040300444 -0.09357595
0000a0 05 55 c9 3d 1c 43 c2 bc 42 c4 ce 3d c7 2d 15 3d
       0.09830669 -0.02371364 0.10096027 0.03642061
0000b0 87 24 cc bd 79 f2 a6 3d d7 71 05 bd f5 cf 39 bd
       -0.099679045 0.08151717 -0.03257927 -0.04536434
0000c0 80 5a c8 bd 5f 4a f0 bd 26 92 07 3d d8 e1 d2 bc
       -0.097828865 -0.11732935 0.033098362 -0.025742456
0000d0 f9 20 3c 3d 99 b7 c6 bd a5 1d b3 3d 8a 8b b1 bd
       0.045929883 -0.09702987 0.087458886 -0.08669193
0000e0 93 77 a9 bc cd 33 c8 3c e3 cc 77 3d 4e d9 c0 3d
       -0.0206869 0.024438763 0.06049813 0.094164476
0000f0 27 91 db 3d a5 91 bf bd cf 10 ea 3c 3a a0 4f bd
       0.10721045 -0.09353951 0.028572468 -0.050689913
000100 de af 53 bc f7 2a b5 bd 12 d5 db 3d e2 0c b1 bd
       -0.012920348 -0.088460855 0.10733999 -0.08645035
000110 d8 3d 80 3d f2 99 29 3d 1a da 1c 3d f2 bd 82 bd
       0.06261796 0.04140658 0.038293935 -0.063838854
000120 ac b8 a6 3d a6 27 8a bb 9d 5f 8f 3c 79 83 ef bd
       0.08140692 -0.0042161522 0.017501647 -0.11694998
000130 2c 0c 19 3d a0 34 96 bc 29 13 74 bc 47 c8 0c 3e
       0.037365124 -0.01833564 -0.014897146 0.13748275
000140 92 99 77 3d f2 d9 83 bd ef 66 76 bd 45 c9 cf bb
       0.06044919 -0.06438054 -0.06015676 -0.006341132
000150 1c d3 8a 3d d1 79 f3 bc 5b 63 8b bd 77 e5 20 bd
       0.06778547 -0.029721173 -0.0680606 -0.039281335
000160 e1 0d b4 bd f6 0d 26 3d 56 32 c6 3d ef 45 d8 bd
       -0.0879171 0.040540658 0.096775696 -0.10560214
000170 c7 d3 eb 3c 61 3e 92 3d 6f 0b fd 3c 73 27 0e bd
       0.028787507 0.07140804 0.030889241 -0.03470559
000180 f5 b8 91 3d 68 65 9b 3d 8a 83 4e 3d 53 d0 4b bd
       0.07115356 0.07587701 0.050418414 -0.04975922
000190 3a d8 6f bd 31 3e b8 3c ae 61 1b bd b2 30 43 bd
       -0.05855582 0.022490593 -0.03793495 -0.04765386
0001a0 7b c9 9e 3d 5a ea 08 3e 28 a2 36 3c e7 89 73 bb
       0.07753273 0.13370648 0.0111470595 -0.0037161054
0001b0 6b f1 6f 3b 66 ee ed ba 14 83 03 3d 2d ef 13 3d
       0.0036612402 -0.0018152713 0.032107428 0.036116768
0001c0 96 f4 d5 bd dd 81 35 bd b4 c1 ce 3d d4 60 37 3d
       -0.10447042 -0.0443133 0.1009554 0.044770077
0001d0 71 30 7f bb 1b 73 b1 bd 1f a2 b6 bd 2d 30 e2 bd
       -0.0038938785 -0.08664533 -0.08917641 -0.11044345
0001e0 1b e0 4f bd e6 bd 9f 3c 78 20 80 3d 69 7a 68 3d
       -0.050750833 0.01949973 0.06256193 0.056757364
0001f0 b0 b6 d8 bd d6 d7 92 bd b6 ff d7 bc db 92 e2 3d
       -0.1058172 -0.07170074 -0.02636705 0.11063167
000200 87 1d c0 3c 90 46 02 bd a6 b4 45 3d 11 14 3b bd
       0.02345158 -0.031805575 0.048267983 -0.045673434
000210 89 18 88 bd c5 d6 b4 3d 22 ff 5b bd 5c c7 df bc
       -0.06645305 0.088300265 -0.05371011 -0.027316742
000220 b1 57 f8 bd 52 fb 92 3d 66 ef c0 3d e9 ac 43 3d
       -0.12126101 0.07176842 0.09420662 0.04777232
000230 84 d0 a8 bd 6d 10 de bd d8 0f ba bd 33 ec bc 3d
       -0.08242896 -0.10842977 -0.09085053 0.09224739
000240 a8 1c 0e 3e e4 5d 32 3e ed 71 c4 3d f2 ce d2 3d
       0.13878119 0.17418629 0.09592042 0.10293378
000250 ed 1b 45 3d 0e eb ae bd 3f 69 96 bd 2c 6c f0 bd
       0.048122335 -0.08540927 -0.07344293 -0.11739382
000260 dc f0 dc 3c b4 a8 6d bd 60 db bb bc 0a 04 8a bd
       0.02697032 -0.058022216 -0.022931755 -0.06739052
000270 e5 23 af bc cd aa a7 bd 27 fc 9b bd aa df 22 3d
       -0.02137942 -0.081868745 -0.076164536 0.039764084
000280 e5 36 09 bd 7a 78 95 3d 23 99 02 bd e5 66 ad bd
       -0.033499617 0.0729837 -0.031884324 -0.08466891
000290 74 27 8f bc 2f fd 6f bd 8d fd 1c bd 1a 82 dc bd
       -0.017474867 -0.058591064 -0.038327742 -0.107670024
0002a0 4b fe 87 3d b0 83 a4 bd a9 39 82 3d cd 9a 06 3e
       0.066402994 -0.0803293 0.06358654 0.1314499
0002b0 3a c2 14 3e 06 ca 8a bd 95 e4 22 3e 88 c1 61 bc
       0.14527217 -0.06776814 0.1590751 -0.013779052
0002c0 7c f2 39 3d 01 03 0e 3e 80 7f ce bc 73 c5 9c bc
       0.045397267 0.13868333 -0.025207281 -0.01913712
0002d0 a0 0b 0b bd 0f da c3 bd 67 f4 8d 3d 07 41 da bd
       -0.033946633 -0.09563076 0.06931382 -0.10656934
0002e0 e8 bc bf 3d 5b 93 dc 3d 4c 2b f7 3d 6e 98 5b bc
       0.09362203 0.10770293 0.12068805 -0.013403041
0002f0 6c da af bd 20 06 1c 3d f6 4b b4 3d 8f 38 d1 bd
       -0.085865825 0.03809178 0.08803551 -0.10215866
000300 44 c7 ce 3b bf 69 24 bd 81 bc b3 3b 60 f7 32 bd
       0.0063103754 -0.04013991 0.005485118 -0.043692946
000310 f6 fd 25 bd fe 02 23 bd ca 54 c6 bd f1 fa d0 3d
       -0.0405254 -0.039797775 -0.09684141 0.10204113
000320 25 c6 d1 3d 4d bf 9e bb 9d bf 99 bb a3 d1 32 bd
       0.10242871 -0.004844582 -0.0046920315 -0.043656956
000330 04 77 d6 bd 85 06 e8 bd 3d 65 38 3d 9f 5d 88 bd
       -0.10471919 -0.113293685 0.045018423 -0.06658482
000340 30 03 9e bd 55 33 02 bc f2 0b 2e bd d9 2b 19 bd
       -0.07715452 -0.007946809 -0.04249186 -0.037395332
000350 66 fc 9c 3b 2f e2 ed bc ea 27 32 bd b9 c3 65 bd
       0.0047908304 -0.029038517 -0.043495096 -0.05609486
000360 56 16 68 bd b8 74 ff 3d 66 a9 2b bd 2f 58 b3 3d
       -0.056661926 0.12473434 -0.041909598 0.08757054
000370 2c 03 6c bc 6e 51 8d ba 4c ea 23 3e 0e 9c 99 3d
       -0.014405053 -0.0010781714 0.16007346 0.07500468
000380 e6 0b ee bd 65 9b 43 3d 0f 0f eb 3d 24 7b 03 3d
       -0.11623363 0.047755618 0.114774816 0.032099858
000390 ac cb a2 3d 31 0e f5 3d f1 d3 89 bc 6d a4 c8 3c
       0.079490036 0.119655974 -0.016824694 0.024492467
0003a0 56 78 a4 bd a1 be bd bc 33 20 be 3d f6 03 87 3d
       -0.08030765 -0.023162188 0.09283485 0.06592552
0003b0 69 29 94 bd b7 c7 b9 bd a4 18 9d bd 93 66 ea bd
       -0.07234461 -0.09071296 -0.076707155 -0.11445346
0003c0 b0 f4 ba bd 88 a1 da bc 08 bf ab 3d b0 65 6f 3d
       -0.09128702 -0.026688352 0.08386046 0.058446586
0003d0 7d a6 8b bd fa 82 bd bd c0 ac e8 3d 53 89 8f bd
       -0.068188645 -0.092534974 0.113610744 -0.070086144
0003e0 5c ce d0 bc 0c df dd 3d 28 db 29 bd 0c 50 ed bc
       -0.025489025 0.108335584 -0.04146877 -0.028968833
0003f0 68 c1 3b bc 7b d3 de bc 96 7d 61 bd e4 60 dc bd
       -0.011459686 -0.027200451 -0.05505141 -0.10760668

3.bias f4 [16]
000000 d3 9c 80 bd c7 e7 51 3c ef 15 33 3d b7 b3 9d bc
       -0.06279912 0.012811608 0.04372209 -0.019250734
000010 49 78 b0 3d 26 ea ba 3c 60 f2 d9 bd d1 c2 45 bc
       0.086166926 0.022816729 -0.106419325 -0.012070374
000020 24 f4 c1 bc 20 b0 f7 3c d6 63 d5 ba 3e 91 c0 bd
       -0.023675986 0.03023535 -0.0016280364 -0.09402703
000030 59 a1 f7 bc 9c 4d 4a bb 08 52 71 bc fb bd f0 3d
       -0.030228304 -0.0030869013 -0.01472903 0.11754986

7.weight f4 [10, 784]
000000 68 88 ff bb 9a 41 bb 3c 9b 37 0c 3c d1 36 f9 bc
       -0.0077982433 0.02285843 0.008558179 -0.030421646
000010 d1 12 08 3c 9c 75 f2 3c 1a 64 bf bc 9b 57 bd bc
       0.008305267 0.029597096 -0.023363162 -0.023113063
000020 f1 0f 0f 3d 95 95 ef 3c 61 b7 a2 bc 4f c8 af 3c
       0.034927312 0.029246131 -0.019862833 0.02145782
000030 dd b6 95 bb 51 3c 10 bd ab 59 2d 3b 7d 39 42 3c
       -0.004568918 -0.035213772 0.0026451151 0.011854527
000040 77 a9 28 bc 84 32 4b 3c e6 42 fa bc 7a c1 ca 3c
       -0.01029431 0.012402181 -0.030549478 0.02475046
000050 99 6b f9 3c a1 a9 a1 3c 2e 99 dd 3b bd e0 3f 3c
       0.030446814 0.019734206 0.006762645 0.011711297
000060 0f a3 d3 bc 07 e1 11 bc 3d 66 5f bb 75 d0 a2 bc
       -0.025834588 -0.008903748 -0.0034088038 -0.01987479
000070 3c 3c dc bc 5c 5c c3 3c c3 41 c6 3c aa 2b 05 bd
       -0.02688419 0.023847751 0.02420128 -0.032512344
000080 cf 83 3a 3c 58 08 6e 3c 3d f6 0a 3d 62 d1 a8 3c
       0.011383965 0.0145283565 0.033926237 0.020607654
000090 23 b0 05 3d b9 00 41 bc d7 76 cc 3c 4d fa ed 3c
       0.03263868 -0.011779957 0.024959011 0.029050017
0000a0 8e 24 0a bd 4d d9 ea bc 54 de ec 3b 5c bc 9f 3c
       -0.033726268 -0.02866807 0.007228652 0.019498996
0000b0 5f 5c 91 bc 5a e0 80 3b dc 76 59 b8 aa 1a 14 3c
       -0.017744241 0.003932995 -5.1847528e-05 0.00903956
0000c0 90 36 9d bc fe bb a1 3c 89 e9 b2 3c e2 55 e2 bc
       -0.019191056 0.019742962 0.021839874 -0.027628843
0000d0 ab 05 6a 3b 62 cf fa 3b d8 05 21 3c 64 13 05 3d
       0.0035708945 0.0076541165 0.009828053 0.032489195
0000e0 d5 69 19 3c 8b 61 54 bc 8a b9 0f 3d 8b 63 ea bb
       0.009363611 -0.012962709 0.035089053 -0.0071529797
0000f0 98 6d e6 bb ca af c7 3b 8a 81 ee bc 2a 41 27 3b
       -0.0070321076 0.0060939537 -0.029114503 0.0025521019
000100 9a 2e 9c bc 7d 25 82 3c f8 95 20 bc e2 d2 50 bc
       -0.01906519 0.015887016 -0.00980138 -0.012745591
000110 64 39 19 bd 94 31 10 bd bf 61 89 3c 39 29 32 3d
       -0.037408248 -0.03520353 0.016770242 0.043496344
000120 c5 d3 0e bd f4 b9 79 bc 8b dd 97 bc a7 38 b1 ba
       -0.034869928 -0.015242089 -0.018538257 -0.0013520912
000130 78 a3 fe 3c ac b1 d6 3c 76 79 c6 bc 91 c1 64 3c
       0.031083807 0.026207767 -0.024227839 0.013962165
000140 8c 62 0a 3d 45 64 a5 3c 26 5b f8 3c 3e 49 7b bc
       0.033785388 0.020189414 0.0303169 -0.0153372865
000150 51 d5 1b bc 32 c5 aa bc 40 3c eb 3a 39 c8 b4 3c
       -0.009511308 -0.020845983 0.0017947033 0.02206813
000160 3c 53 45 3b 2e c1 af bc 76 93 87 bc bc 06 3a 3c
       0.0030109426 -0.02145442 -0.016549807 0.011354145
000170 31 c2 0f bd 03 63 26 bc 37 0f 92 bb c6 e8 8a bc
       -0.035097305 -0.010155442 -0.00445738 -0.016956698
000180 6a 25 4d 3c 04 28 02 3b bf 28 cd 3c 88 de 52 bb
       0.012521127 0.0019860277 0.025043843 -0.0032176096
000190 7e 76 b9 bc d8 53 cc 3c 13 4a 9e 3b 93 47 32 bc
       -0.02263951 0.024942324 0.0048306077 -0.010881322
0001a0 6d 5e c3 bc 33 ad 08 3c a4 e9 0f bd 71 4b ae 3a
       -0.023848737 0.008342075 -0.035134926 0.001329763
0001b0 b8 c8 5e 3c 99 2b 0b bd 63 df 08 bd 36 dc ea bc
       0.01359766 -0.033977125 -0.033416163 -0.028669458
0001c0 97 5f f2 3c eb 52 bc 3c 39 0c 18 bc 28 9f 85 3d
       0.029586596 0.022988757 -0.009280258 0.06524497
0001d0 e0 69 1f 3c 2e 20 13 bd 0f e8 1a 3c c8 12 46 3c
       0.009729832 -0.03591936 0.009454741 0.012089439
0001e0 0b bc f9 3c ce 41 09 3d e2 f8 35 3d 82 55 59 bc
       0.030485174 0.033510022 0.044426806 -0.013265016
0001f0 58 c4 30 3d 9b ca e9 bc ca 65 eb 3c 47 97 09 bd
       0.043155998 -0.028538993 0.02873506 -0.033591535
000200 29 db 5e 3d b8 c4 2a bd 0b b6 38 bd 57 f4 21 3d
       0.054408226 -0.041691512 -0.045095485 0.03953966
000210 99 f8 bc bb 13 23 0d bd 7a 9d 97 bc 99 fd 62 3c
       -0.00576694 -0.034457278 -0.018507708 0.013854408
000220 6d c9 f8 3c 34 cc e6 3b 34 b0 cb 3c cf 01 7b 3a
       0.030369485 0.007043386 0.024864294 0.00095751596
000230 57 a4 0b 3a 13 4a 65 3b 12 90 ec bb b2 7b 2b bc
       0.0005326918 0.0034986779 -0.007219323 -0.010466503
000240 d7 0c ec bb 18 4b 21 bd 1b bd 89 bc 25 5c d7 3a
       -0.007203679 -0.039378256 -0.016813805 0.001643066
000250 d3 6c c1 bc a2 5a 7b bc b4 47 f0 bb 03 1c 66 39
       -0.023611462 -0.015341433 -0.0073327664 0.00021944944
000260 52 b9 ca bc b1 0f 0a 3a 3f 4c a4 bb 50 91 19 3c
       -0.02474657 0.00052666204 -0.005013972 0.009373024
000270 d8 24 4f bb 79 4c be bc 1d bd 84 3b 0d 97 b3 3c
       -0.0031607654 -0.023229824 0.0040508644 0.021922613
000280 51 20 c9 bc 1e 2c 37 3b 35 1a 32 bb 8a d8 55 3c
       -0.024551542 0.002794988 -0.0027176265 0.013052115
000290 8b cb 6e 3c 89 b2 a4 3c ec 17 af 3c ac 6e 8f bc
       0.014574896 0.020104663 0.021373712 -0.017508827
0002a0 0e c4 82 3c 0c fe b6 bc 55 bb cb 3c c0 df 74 3b
       0.015962627 -0.022337936 0.0248696 0.003736481
0002b0 13 7c 1f bd cd 13 84 bb 0e 1e 1e 3d 22 79 a7 3c
       -0.038936686 -0.0040306807 0.03860288 0.020443503
0002c0 08 b2 20 3c ed 8a 8a 3d c1 80 f7 bc dc 4e a1 3a
       0.009808071 0.06764779 -0.030212762 0.0012306827
0002d0 89 4b 01 3d 82 02 aa 3c 19 d8 e8 bc 07 05 47 3c
       0.031566177 0.020753149 -0.028423356 0.012147195
0002e0 67 ca a1 bc 37 9b 1f bb 02 b8 ca bb ad 52 18 bd
       -0.019749833 -0.002435399 -0.006186486 -0.03718822
0002f0 19 1d 0f bd 6e 7b c0 bc 66 63 84 3c 6a d3 71 3c
       -0.03493986 -0.023496356 0.016160678 0.014759878
000300 06 dd 06 bd 6a 6c 74 bc 21 ea 86 b9 7c cb fd bc
       -0.032925628 -0.014918426 -0.0002573291 -0.030980818
000310 40 fe a2 3c 1a 19 01 3d 54 43 9b 3b 4b 9d ab bc
       0.019896626 0.03151808 0.0047382507 -0.020949027
000320 10 2d 9e 3c 4f ea 7e 3c c1 de e1 3c 02 76 9e bc
       0.019308597 0.015558793 0.027572038 -0.01934338
000330 ff e9 09 bd 16 d6 2f 3c df 1f 19 bb 54 06 4a bc
       -0.03367042 0.010732194 -0.0023364944 -0.01233061
000340 7e bd 18 bc 7f 98 88 bc b1 4a ea 3c f9 75 00 bc
       -0.009322522 -0.016674278 0.028600069 -0.007840627
000350 54 a5 a5 3c 74 c8 d1 3c 64 39 d4 bb 80 48 09 bb
       0.020220436 0.025608279 -0.006476568 -0.0020947754
000360 1e 40 38 bb c0 ee bf 3c 7b 79 18 bd fd a3 23 3c
       -0.0028114389 0.023429275 -0.037225228 0.009987828
000370 e0 e3 d1 bb bb 03 5b 3c 4e e9 1d bc 28 24 8a bc
       -0.0064053386 0.013367589 -0.009638144 -0.016862944
000380 1c a3 a8 bb fe 61 4e 3c db 69 e1 bc 61 fd 8c bc
       -0.0051463973 0.012596605 -0.027516296 -0.017210664
000390 39 50 3e bc 78 32 88 bc 34 b8 75 3c 96 3d c3 3c
       -0.011615806 -0.016625628 0.014997531 0.023833077
0003a0 30 4d cb bb 83 3f ff 3c c7 ba 85 bc 1d 24 b0 bc
       -0.00620427 0.031158214 -0.016324414 -0.021501595
0003b0 6f 87 71 bc 58 e6 c5 bc 77 7c cf bc ed 7c 02 bd
       -0.014741763 -0.024157688 -0.025327904 -0.03185742
0003c0 85 07 f7 bc f9 6c 3f 3c b5 b5 b4 3c ea 82 06 3d
       -0.030154953 0.011683696 0.0220593 0.032839693
0003d0 85 67 f6 3c d1 b9 24 bb 4d ae d3 3b d6 fa af bc
       0.030078659 -0.002513517 0.0064599873 -0.021481913
0003e0 b9 79 61 3c 50 e0 0d bd e1 5e 86 3c 1c d1 c7 3b
       0.013761931 -0.03463775 0.016402664 0.006097926
0003f0 8f 0c 2b 3c 3d 5c 57 3c 58 2a 80 bc 9b 9f d9 3c
       0.010440006 0.01314455 -0.015645191 0.026565364

7.bias f4 [10]
000000 b9 9d ac bc 5e 57 1f bc 8f 07 bd bb 58 81 fa bc
       -0.021071302 -0.00972542 -0.0057687233 -0.030579254
000010 b4 7a 9d 3c e3 f7 18 bd 48 9d bc bc 35 33 30 bc
       0.019223548 -0.03734578 -0.023024216 -0.010754396
000020 7b 2b b6 bc f7 c4 36 3c
       -0.02223753 0.0111553585
